…
model.add(Conv2D(64, (3, 3), activation='relu'))
model.add(MaxPooling2D((2, 2)))
model.add(Conv2D(128, (3, 3), activation='relu'))
model.add(MaxPooling2D((2, 2)))
model.add(Flatten())

model.add(Dense(128, activation='relu'))
model.add(BatchNormalization())

model.add(Dense(32, activation='relu'))
model.add(BatchNormalization())

model.add(Dense(4, activation='softmax'))
model.summary()

-> Model: "sequential"
_________________________________________________________________
 Layer (type)                Output Shape              Param #   
=================================================================
 conv2d (Conv2D)             (None, 222, 222, 32)      320       
                                                                 
 max_pooling2d (MaxPooling2  (None, 111, 111, 32)      0         
 D)                                                              
                                                                 
 conv2d_1 (Conv2D)           (None, 109, 109, 64)      18496     
                                                                 
 max_pooling2d_1 (MaxPoolin  (None, 54, 54, 64)        0         
 g2D)                                                            
                                                                 
 conv2d_2 (Conv2D)           (None, 52, 52, 128)       73856     
                                                                 
 max_pooling2d_2 (MaxPoolin  (None, 26, 26, 128)       0         
 g2D)                                                            
                                                                 
 flatten (Flatten)           (None, 86528)             0         
                                                                 
 dense (Dense)               (None, 128)               11075712  
                                                                 
 batch_normalization (Batch  (None, 128)               512       
 Normalization)                                                  
                                                                 
 dense_1 (Dense)             (None, 32)                4128      
                                                                 
 batch_normalization_1 (Bat  (None, 32)                128       
 chNormalization)                                                
                                                                 
 dense_2 (Dense)             (None, 4)                 132       
                                                                 
=================================================================
Total params: 11173284 (42.62 MB)
Trainable params: 11172964 (42.62 MB)
Non-trainable params: 320 (1.25 KB)

---- 
model = Sequential()

model.add(Conv2D(32, (3, 3), activation='relu', input_shape=(224, 224, 1)))
model.add(MaxPooling2D((2, 2)))
model.add(Conv2D(64, (3, 3), activation='relu'))
model.add(MaxPooling2D((2, 2)))
model.add(Conv2D(128, (3, 3), activation='relu'))
model.add(Flatten())

model.add(Dense(128, activation='relu'))
model.add(BatchNormalization())

model.add(Dense(32, activation='relu'))
model.add(BatchNormalization())

model.add(Dense(4, activation='softmax'))
model.summary()
Model: "sequential_1"
_________________________________________________________________
 Layer (type)                Output Shape              Param #   
=================================================================
 conv2d_3 (Conv2D)           (None, 222, 222, 32)      320       
                                                                 
 max_pooling2d_3 (MaxPoolin  (None, 111, 111, 32)      0         
 g2D)                                                            
                                                                 
 conv2d_4 (Conv2D)           (None, 109, 109, 64)      18496     
                                                                 
 max_pooling2d_4 (MaxPoolin  (None, 54, 54, 64)        0         
 g2D)                                                            
                                                                 
 conv2d_5 (Conv2D)           (None, 52, 52, 128)       73856     
                                                                 
 flatten_1 (Flatten)         (None, 346112)            0         
                                                                 
 dense_3 (Dense)             (None, 128)               44302464  
                                                                 
 batch_normalization_2 (Bat  (None, 128)               512       
 chNormalization)                                                
                                                                 
 dense_4 (Dense)             (None, 32)                4128      
                                                                 
 batch_normalization_3 (Bat  (None, 32)                128       
 chNormalization)                                                
                                                                 
 dense_5 (Dense)             (None, 4)                 132       
                                                                 
=================================================================
Total params: 44400036 (169.37 MB)
Trainable params: 44399716 (169.37 MB)
Non-trainable params: 320 (1.25 KB)


---- Early Stopping 추가한 Model
# Early Stopping 콜백 추가
from keras.callbacks import EarlyStopping
early_stopping = EarlyStopping(monitor='val_loss', patience=10, restore_best_weights=True)
…
