…
model.add(Conv2D(64, (3, 3), activation='relu'))
model.add(MaxPooling2D((2, 2)))

model.add(Conv2D(128, (3, 3), activation='relu'))
model.add(MaxPooling2D((2, 2)))


model.add(Flatten())

model.add(Dense(64, activation='relu'))
model.add(BatchNormalization())  # 배치 정규화 추가
model.add(Dense(32, activation='relu'))

model.add(Dense(5, activation='softmax'))
model.summary()

-> Model: "sequential"
_________________________________________________________________
 Layer (type)                Output Shape              Param #   
=================================================================
 conv2d (Conv2D)             (None, 46, 46, 32)        320       
                                                                 
 max_pooling2d (MaxPooling2  (None, 23, 23, 32)        0         
 D)                                                              
                                                                 
 conv2d_1 (Conv2D)           (None, 21, 21, 64)        18496     
                                                                 
 max_pooling2d_1 (MaxPoolin  (None, 10, 10, 64)        0         
 g2D)                                                            
                                                                 
 conv2d_2 (Conv2D)           (None, 8, 8, 128)         73856     
                                                                 
 max_pooling2d_2 (MaxPoolin  (None, 4, 4, 128)         0         
 g2D)                                                            
                                                                 
 flatten (Flatten)           (None, 2048)              0         
                                                                 
 dense (Dense)               (None, 64)                131136    
                                                                 
 batch_normalization (Batch  (None, 64)                256       
 Normalization)                                                  
                                                                 
 dense_1 (Dense)             (None, 32)                2080      
                                                                 
 dense_2 (Dense)             (None, 5)                 165       
                                                                 
=================================================================
Total params: 226309 (884.02 KB)
Trainable params: 226181 (883.52 KB)
Non-trainable params: 128 (512.00 Byte)
_________________________________________________________________

model.compile(loss = 'sparse_categorical_crossentropy',
              optimizer = 'adam',
…
